trained_models/sample.model (torch_old, 8755 bytes, 1 tensors)

0.weight f4 [1, 2048]
-0.018355334 -0.008117743 -0.0129664885 0.011257034 0.0039195 0.021511603 0.023850916 0.017392475
-0.013840387 0.0024448542 -0.005123605 0.0140147945 -0.019771552 0.008745872 0.022108212 0.0046815835
3.2702366e-05 -0.013356043 -0.00037146674 -0.014414846 -0.021191778 -0.017203487 0.0059978077 -0.004866441
-0.0023260177 0.019089613 -0.016306052 -0.022158246 0.004313566 0.010014163 -0.0179201 0.009187529
0.011607101 0.012212082 -0.021621294 -0.005587361 -0.002183992 -0.01715358 -0.0031139357 0.011000588
0.020550735 0.0063578617 -0.014189113 0.0107964445 -0.00031568776 0.015124044 0.014285414 -0.018246224
0.0151838735 0.00387339 -0.0026101118 0.01899075 0.017538011 0.019370554 -0.022516621 0.0011319319
0.0072228215 -0.018368037 0.0039017224 -0.0017103759 0.02127187 -0.004962386 -0.0119741 -0.011756543
-0.0087265 -0.010761913 -0.02294989 -0.0049075927 0.016234882 0.01035081 -0.01431975 0.008595081
0.002409696 -0.0012035649 -0.015933633 -0.021341847 0.01822632 0.006294312 -0.014257074 -0.016751092
0.019351253 -0.005399656 0.0056478297 0.004424835 0.00017473589 -0.017182102 -0.0005182983 -0.008782753
-0.00091496 -0.019313758 -0.0006943876 -0.0051744296 -0.014652312 -0.006159962 -0.003186547 0.022075415
-0.0065964647 -0.018602068 -0.009012152 0.001641406 0.017806375 0.0032858823 -0.011629693 -0.0028136075
0.010750303 -0.019565087 -0.009331787 -0.005003097 0.012488291 -0.020230629 0.011528558 0.0024147152
-0.0075511322 -0.017351711 0.011619312 -0.0098748645 -0.0038201418 0.016836492 -0.019799018 -0.010132821
-0.0024916444 -0.013916826 0.006866886 0.0007594477 -0.0051354137 -0.018419294 0.0011328803 -0.010360616
-0.016648259 0.01567365 -0.005521027 0.019433876 -0.01014427 0.023982601 -0.018253319 0.012216065
-0.0010137265 -0.017966231 0.005699243 0.0033437873 0.0012934718 -0.017313873 -0.00057231943 0.025789538
0.013095717 0.016200094 -0.000873362 0.0064253844 0.0065731206 -0.005984754 -0.009844311 -0.01580155
-0.0018350095 -0.010598433 -0.018395497 -0.01718572 -0.0018523982 -0.019173073 0.016281078 -0.012395438
-0.014366285 0.0074150027 0.014950513 -0.003262907 -0.01958998 -0.0038074504 0.007209031 0.013944502
-0.012069074 -0.00023798629 -0.023254659 -0.019102784 -0.012260567 0.010632031 0.009849003 -0.008194929
-0.015984658 -0.014571183 0.022971164 0.003002633 -0.015771104 0.014643976 -0.00045945012 -0.00020246363
0.01754214 0.014319877 0.023193436 -0.014010871 -0.012627803 0.0052585234 -0.019925693 -0.016897922
0.01216734 -0.012595452 -0.003595607 0.004853078 0.011921089 -0.0038198205 0.009398093 0.016792934
0.016160201 -0.014979408 -0.021859746 0.015462058 0.01292191 0.017946484 -0.0076349773 -0.013117072
0.00793303 -0.0013775723 0.00835958 -0.010293172 0.013538506 -0.006425067 -0.020536149 -0.012580738
-0.008214511 0.0076411935 -0.018673955 0.016678574 0.012663191 0.0068790247 0.014109597 0.009766969
-0.018445995 0.011394816 -0.003744455 -0.00072701974 -0.016893903 -0.007368968 0.020550273 -0.006412957
0.004666268 -0.011138637 -0.010764639 -0.0033003814 0.018366763 0.0017945461 0.019887429 -0.020407906
0.0015787337 -0.020005796 0.017743733 -0.0038766856 -0.02020088 -0.019638669 0.005844534 -0.0059890277
-0.011990974 0.02171385 0.017504951 -0.01800046 -0.0018704669 -0.0097323805 -0.0047714133 -0.0043094195
00000000: ed5d 96bc 4800 05bc 6571 54bc 6c6f 383c
00000010: 266f 803b 1a39 b03c ff62 c33c aa7a 8e3c
00000020: cac2 62bc d939 203b eae3 a7bb 4f9e 653c
00000030: f3f7 a1bc d94a 0f3c 481c b53c f867 993b
00000040: e629 0938 4ed3 5abc 6cc1 c2b9 3f2c 6cbc
00000050: 619a adbc 54ee 8cbc 4289 c43b aa76 9fbb
00000060: 1a70 18bb d261 9c3c 4594 85bc 3685 b5bc
00000070: d058 8d3b 7212 243c 2ccd 92bc 4a87 163c
00000080: b62b 3e3c 2f15 483c 241f b1bc 2e16 b7bb
00000090: 4e21 0fbb aa85 8cbc 2c13 4cbb cf3b 343c
000000a0: 045a a83c 9c55 d03b 7479 68bc 92e3 303c
000000b0: e582 a5b9 d7ca 773c 5e0d 6a3c 1b79 95bc
000000c0: c8c5 783c b3d8 7d3b 690e 2bbb 7d92 9b3c
000000d0: e0ab 8f3c ffae 9e3c c774 b8bc 555d 943a
000000e0: 6bad ec3b 9178 96bc 0ab4 7f3b b12e e0ba
000000f0: 5842 ae3c 839b a2bb 042f 44bc 849e 40bc
00000100: 98f9 0ebc bc52 30bc 6801 bcbc dfcf a0bb
00000110: 04ff 843c 7296 293c 629d 6abc 62d2 0c3c
00000120: feeb 1d3b f0c0 9dba 4087 82bc 19d5 aebc
00000130: 5d4f 953c 8440 ce3b 8196 69bc 9639 89bc
00000140: 8586 9e3c 99ef b0bb 6e11 b93b 35fe 903b
00000150: 4f39 3739 7bc1 8cbc 69de 07ba 89e5 0fbc
00000160: edd9 6fba e337 9ebc 9007 36ba 438e a9bb
00000170: 4010 70bc 82d9 c9bb 63d5 50bb 80d7 b43c
00000180: 2827 d8bb 5d63 98bc b5a7 13bc 7224 d73a
00000190: adde 913c f557 573b 788a 3ebc 8064 38bb
000001a0: 0a22 303c f646 a0bc 5ae4 18bc 05f1 a3bb
000001b0: b09b 4c3c b4ba a5bc 47e2 3c3c 3340 1e3b
000001c0: 7d6f f7bb 2d25 8ebc ed5e 3e3c 2fca 21bc
000001d0: 585b 7abb afec 893c 8d31 a2bc 2204 26bc
000001e0: db4a 23bb 6603 64bc 9d03 e13b ac15 473a
000001f0: f946 a8bb 0fe4 96bc 287d 943a 93bf 29bc
00000200: ee61 88bc 0766 803c bbe9 b4bb cb33 9f3c
00000210: 2734 26bc 2977 c43c fc87 95bc e425 483c
00000220: 04df 84ba eb2d 93bc b7c0 ba3b 7123 5b3b
00000230: b689 a93a d3d5 8dbc b507 16ba 9544 d33c
00000240: 6b8f 563c 0fb6 843c 55f2 64ba 088c d23b
00000250: 5563 d73b c11b c4bb 084a 21bc 4172 81bc
00000260: b484 f0ba 0da5 2dbc 27b2 96bc 11c9 8cbc
00000270: 2bcc f2ba d910 9dbc e55f 853c 3c16 4bbc
00000280: 9160 6bbc 8df9 f23b fff2 743c 7fd6 55bb
00000290: 2a7b a0bc 6b86 79bb bc39 ec3b 7b77 643c
000002a0: 5ebd 45bc f58b 79b9 8e80 bebc 717d 9cbc
000002b0: 8ce0 48bc f831 2e3c b65d 213c 0644 06bc
000002c0: 42f2 82bc f9bb 6ebc 062e bc3c d3c7 443b
000002d0: 6732 81bc 4aed 6f3c 5ae2 f0b9 6b4c 54b9
000002e0: 89b4 8f3c eb9d 6a3c 2900 be3c da8d 65bc
000002f0: d8e4 4ebc b14f ac3b 353b a3bc 836d 8abc
00000300: 8659 473c 285d 4ebc 46a4 6bbb 9206 9f3b
00000310: ac50 433c f455 7abb 76fa 193c 5691 893c
00000320: 6662 843c 316c 75bc 3613 b3bc 9254 7d3c
00000330: 6bb6 533c 8104 933c d52e fabb fde8 56bc
00000340: 8af9 013c a88f b4ba 9ff6 083c b1a4 28bc
00000350: 9cd0 5d3c 5e89 d2bb 6d3b a8bc 711f 4ebc
00000360: 2896 06bc fa62 fa3b 1ffa 98bc 81a1 883c
00000370: 4679 4f3c 7169 e13b f02b 673c a305 203c
00000380: 0e1c 97bc 53b1 3a3c 8865 75bb 7895 3eba
00000390: 1565 8abc 6277 f1bb 0c59 a83c c823 d2bb
000003a0: 7ee7 983b d47e 36bc 2b5e 30bc 364b 58bb
000003b0: e575 963c fa36 eb3a f6ea a23c 7b2e a7bc
000003c0: 83ed ce3a 32e3 a3bc 4e5b 913c fe0f 7ebb
000003d0: 517c a5bc 46e1 a0bc 8183 bf3b 9b3f c4bb
000003e0: ca75 44bc 3ee1 b13c 8b66 8f3c b375 93bc
000003f0: 742a f5ba 9074 1fbc 8459 9cbb 0836 8dbb
